…
820,"name (which is automatically generated unless you set it when creating the layer), its
output shape (None means the batch size can be anything), and its number of parame‐
ters. The summary ends with the total number of parameters, including trainable and
non-trainable parameters. Here we only have trainable parameters (we will see exam‐
ples of non-trainable parameters in Chapter 11):
>>> model.summary()
Model: ""sequential""
_________________________________________________________________
Layer (type) Output Shape Param #
=================================================================
flatten (Flatten) (None, 784) 0
_________________________________________________________________
dense (Dense) (None, 300) 235500
_________________________________________________________________"
821,"dense (Dense) (None, 300) 235500
_________________________________________________________________
14 You can use keras.utils.plot_model() to generate an image of your model.
300 | Chapter 10: Introduction to Artificial Neural Networks with Keras
dense_1 (Dense) (None, 100) 30100
_________________________________________________________________
dense_2 (Dense) (None, 10) 1010
=================================================================
Total params: 266,610
Trainable params: 266,610
Non-trainable params: 0
_________________________________________________________________
Note that Dense layers often have a lot of parameters. For example, the first hidden
layer has 784 × 300 connection weights, plus 300 bias terms, which adds up to"
822,"layer has 784 × 300 connection weights, plus 300 bias terms, which adds up to
…
keras.layers.Dense(10, activation=""softmax"")
])"
958,"keras.layers.BatchNormalization(),
keras.layers.Dense(10, activation=""softmax"")
])
That’s all! In this tiny example with just two hidden layers, it’s unlikely that Batch
Normalization will have a very positive impact; but for deeper networks it can make a
tremendous difference.
Let’s display the model summary:
>>> model.summary()
Model: ""sequential_3""
_________________________________________________________________
Layer (type) Output Shape Param #
=================================================================
flatten_3 (Flatten) (None, 784) 0
_________________________________________________________________
batch_normalization_v2 (Batc (None, 784) 3136
_________________________________________________________________
dense_50 (Dense) (None, 300) 235500"
959,"_________________________________________________________________
dense_50 (Dense) (None, 300) 235500
_________________________________________________________________
batch_normalization_v2_1 (Ba (None, 300) 1200
_________________________________________________________________
dense_51 (Dense) (None, 100) 30100
_________________________________________________________________
batch_normalization_v2_2 (Ba (None, 100) 400
_________________________________________________________________
dense_52 (Dense) (None, 10) 1010
=================================================================
Total params: 271,346
Trainable params: 268,978
Non-trainable params: 2,368
As you can see, each BN layer adds four parameters per input: γ, β, μ, and σ (for"
960,"Non-trainable params: 2,368
As you can see, each BN layer adds four parameters per input: γ, β, μ, and σ (for
example, the first BN layer adds 3,136 parameters, which is 4 × 784). The last two
…
